Summary
----------------------------------------------------------------
        Layer (type)               Output Shape         Param #
================================================================
            Conv2d-1           [-1, 16, 16, 16]             448
         MaxPool2d-2             [-1, 16, 8, 8]               0
            Conv2d-3             [-1, 32, 8, 8]           4,640
         MaxPool2d-4             [-1, 32, 4, 4]               0
            Conv2d-5             [-1, 80, 4, 4]          23,120
         MaxPool2d-6             [-1, 80, 2, 2]               0
 AdaptiveMaxPool2d-7             [-1, 80, 1, 1]               0
            Linear-8                   [-1, 10]             810
================================================================
Total params: 29,018
Trainable params: 29,018
Non-trainable params: 0
----------------------------------------------------------------
Input size (MB): 0.00
Forward/backward pass size (MB): 0.07
Params size (MB): 0.11
Estimated Total Size (MB): 0.19
----------------------------------------------------------------
None
train loss after 1 epochs: 0.04608256354844074
…
